best_model.pth (torch, 14438 bytes, 6 tensors)

fc1.weight f4 [64, 10]
000000 9b 2f 00 b9 6c aa 87 3e 12 47 71 3d 00 a3 c4 be
       -0.00012224766 0.2649721 0.05890567 -0.3840561
000010 c4 37 01 3e b0 a8 42 be 36 b3 18 3e 04 61 6e be
       0.12618929 -0.19009662 0.14912114 -0.23279196
000020 59 03 b1 be 72 50 49 be f5 42 2b 3e 5a 90 97 be
       -0.34572867 -0.19659594 0.16724761 -0.2960232
000030 da c3 0b 3d a2 a8 84 bd 32 8a 95 be 94 b6 b9 3d
       0.034122325 -0.06477477 -0.29206997 0.09068027
000040 31 95 01 bb 0e f6 5e 3d 1f f5 f2 3d b1 c0 56 bd
       -0.0019772763 0.054433875 0.118631594 -0.05242986
000050 31 59 c8 3e 12 ad 0b be eb bb 7b be 22 63 f9 3e
       0.39130548 -0.1364024 -0.24583404 0.48708445
000060 08 04 77 3e 66 f9 a3 3e e4 42 b2 3e 1b d2 f0 bd
       0.24122632 0.32026213 0.34816658 -0.117588244
000070 d6 42 bf 3e b5 49 09 3e 78 a6 d2 be 1c 83 af be
       0.3735568 0.13407023 -0.4114263 -0.34279716
000080 03 22 9b be 73 9d 98 3e ab 1a c6 3e ae 10 6c 3d
       -0.30299386 0.29807624 0.3869222 0.057633094
000090 a1 62 0a be d3 b1 d8 bd 4e 46 d7 3d 28 db 45 3e
       -0.13514186 -0.10580792 0.105114564 0.19321883
0000a0 54 0e 25 3d f5 86 9a be e6 9d c5 3e ba 8d 8f 3e
       0.040296867 -0.3018109 0.3859703 0.28037816
0000b0 b3 57 f6 bc d2 c5 b9 be d1 57 ee 3d 9d 37 e8 be
       -0.030071115 -0.36283737 0.116378434 -0.4535493
0000c0 b5 4d 44 3e bf fa c0 bc 5e 89 38 be d7 19 3c be
       0.19170268 -0.023557065 -0.18021151 -0.18369232
0000d0 47 40 05 bf 4f 14 7f bc ff 4f b6 be 38 8b 84 be
       -0.52051204 -0.015568807 -0.35607907 -0.25887465
0000e0 99 be 6d 3e 1d e1 d2 3d ac b9 9a be 7f 70 fb be
       0.23217238 0.10296843 -0.3021978 -0.49109265
0000f0 3d 34 62 be b3 11 d4 3d 04 f2 6a 3e 38 b4 d5 be
       -0.2209024 0.10354938 0.22943884 -0.41739058
000100 cd 17 3b 3e fc 9e 28 3e aa 74 87 3c 59 b3 5c be
       0.18270798 0.16466898 0.016535122 -0.2155279
000110 02 25 db 3c dd 84 86 be f5 14 0b 3d e2 b1 df 3d
       0.026751045 -0.26273242 0.033955533 0.109226
000120 dc 57 de 3e 7d a7 38 bd e3 d4 99 3c cd b9 19 3e
       0.43426406 -0.045081604 0.01877827 0.15012284
000130 1f 3e c1 be df b3 aa 3d 06 c1 ca 3e 40 a0 55 3e
       -0.37742707 0.08335089 0.3960039 0.20861912
000140 ce 57 0a bd 99 e1 e3 3c 87 3e 24 3e fe ce 78 be
       -0.033775143 0.027817534 0.16039477 -0.24297711
000150 63 93 00 be 97 b5 07 3f 11 bd a5 3e 05 ee e0 3d
       -0.12556224 0.5301146 0.3237081 0.109828986
000160 c5 0e 58 be a2 53 01 be 82 88 83 3d 51 27 a6 be
       -0.21099384 -0.1262956 0.06422521 -0.3245187
000170 d6 74 31 3e f9 84 cb be 57 c6 36 be f1 d9 2e 3e
       0.17329726 -0.39749888 -0.17849098 0.17075326
000180 c3 27 c4 be d2 71 0d 3e 5b bf b8 bd 72 8c db bd
       -0.38311586 0.1381295 -0.09020873 -0.10720147
000190 bd d7 a3 3d d7 ca cb bd 60 87 09 bf f3 e2 dc bc
       0.08000133 -0.09950798 -0.5372219 -0.026963687
0001a0 a7 a6 e9 bd 3c cb b2 be e3 74 cf bd 37 65 66 be
       -0.114087395 -0.3492068 -0.10129716 -0.22499548
0001b0 b4 02 d6 3e 46 3c 90 be 57 de 44 be 43 c0 5c 3d
       0.41798937 -0.28170985 -0.19225441 0.053894293
0001c0 3a 0a 53 be c4 59 f0 3c 4c 33 ad bd c6 fa df 3e
       -0.2060937 0.029339679 -0.0845705 0.43746012
0001d0 72 dd b8 be d3 c2 b9 3d ec b8 c0 3e bc f5 0a 3e
       -0.3610645 0.09070363 0.37641084 0.13570303
0001e0 c3 ce f9 bd bb 9b f0 3e 25 02 04 bf 4d 96 b6 3e
       -0.1219764 0.46993813 -0.5156577 0.35661545
0001f0 77 e2 27 3e 3a 53 7d 3e 3a 0e bb 3e 8b bc d1 3d
       0.16394983 0.2473878 0.36534292 0.1024104
000200 c4 dc da 3d 51 b7 e0 3b ec 1f 90 bd ac 7b f4 bb
       0.10686639 0.0068577905 -0.070373386 -0.007461032
000210 32 cf ac 3e 0f 0d ad 3e b4 3f 71 bc 97 ae 8f be
       0.33751827 0.33799025 -0.014724661 -0.2806289
000220 e7 15 41 bd 53 8d 1d 3e e4 a4 06 bd 57 2f 0c 3f
       -0.04714003 0.15385942 -0.032872096 0.54759735
000230 00 22 15 3e c1 b1 92 3c 7d c8 b4 3e f2 a4 82 3e
       0.14563751 0.017907025 0.3530921 0.25516468
000240 3e 64 1d be 5e 0c 5f bd e3 d9 74 3e cd 77 87 3e
       -0.1537027 -0.054455154 0.23911242 0.26458588
000250 0d 00 8a 3d 57 db 02 3e 96 0a b0 be c9 df 55 be
       0.06738291 0.12778984 -0.34383076 -0.20886149
000260 a6 8d dd be 4c 06 02 3e a6 3d 7d 3e 57 75 5e be
       -0.43272132 0.12697715 0.24730548 -0.21724449
000270 fa 03 eb bd 3f 99 67 bd 21 9c d4 be 05 ad b7 3e
       -0.11475368 -0.05654263 -0.41525367 0.3587419
000280 9e 50 9f be ee 0e 2e be 83 59 c9 be 13 e8 58 be
       -0.31116194 -0.16997883 -0.39326105 -0.2118228
000290 81 04 3f be 5d 91 fb bd 23 55 a7 3e 02 99 00 3f
       -0.18654062 -0.12283585 0.32682142 0.5023347
0002a0 8a 89 bc 3d c9 7c 96 3e 8e f9 61 3d 28 90 ac 3d
       0.09205921 0.2939208 0.055169635 0.08425933
0002b0 04 ff c3 be 5e 94 64 3e bc 51 e0 be 5c 3d fd 3d
       -0.382805 0.22322223 -0.43812358 0.12365219
0002c0 06 d5 a8 be 8d 98 94 be 5e b9 d0 be 8f 9e d8 be
       -0.32975024 -0.29022637 -0.40766424 -0.4230847
0002d0 f2 17 c2 be 27 7c 8e be 45 99 04 be 63 99 04 bf
       -0.37908894 -0.27829096 -0.12949093 -0.5179655
0002e0 58 86 ab 3e b9 53 eb 3d ec 5a d6 be 52 61 52 be
       0.33500934 0.11490578 -0.41866243 -0.20544937
0002f0 c1 fa 19 ba 99 0a 5e 3e 06 ef 0e 3e 60 0d 14 3e
       -0.0005873852 0.2168373 0.13958368 0.14458227
000300 59 71 e0 3e a3 3b 71 be 88 45 91 be ec 5b 2f 3e
       0.43836477 -0.23557906 -0.2837336 0.17124909
000310 24 06 a7 be 18 84 c4 bb f3 b4 80 3d 20 aa 9e 3e
       -0.32621872 -0.005997192 0.06284513 0.3098917
000320 19 bb 1f be 9f 82 52 3d 2c ff ba bd 98 c6 18 bb
       -0.15598716 0.0513941 -0.091307014 -0.002331173
000330 55 f2 ee bd 07 9d b3 be 15 74 87 3e ce 8f db be
       -0.11667315 -0.3508074 0.2645575 -0.42883152
000340 7b cf 5a 3c 4e 64 3c 3e 05 bf d3 bd b8 de 53 be
       0.013355131 0.18397638 -0.103391685 -0.20690429
000350 69 ed cc be ad a0 32 3e 97 16 be bc ff 46 72 3e
       -0.4002488 0.17444105 -0.023204131 0.23659895
000360 ef b9 2d bd bc 38 83 be 59 b2 d9 bd 99 18 83 3e
       -0.04241365 -0.25629222 -0.1062972 0.25604704
000370 d1 2f 6d be 7f 7e 31 be ac a5 86 3e 31 4b 87 be
       -0.23162772 -0.1733341 0.26298273 -0.26424554
000380 bf 7a ce 3d ed 3b 17 bd 3a 1c c5 3e 42 4e 93 3e
       0.10082006 -0.036922384 0.38498098 0.28770643
000390 dc c2 6b be 34 bb 1c bf 0f 29 6f 3e ae 37 17 bd
       -0.23023552 -0.6122315 0.23355506 -0.036918335
0003a0 51 78 68 3e b2 56 d8 bd 37 f6 af bd 68 e3 a3 3d
       0.22702147 -0.10563411 -0.08591884 0.08002359
0003b0 62 b5 81 bd b3 13 b1 3e 0b a1 99 3e a0 a3 10 be
       -0.06333424 0.34585342 0.3000568 -0.14124918
0003c0 4b 1a b1 be 72 e1 98 3e a6 2a 95 3e 31 5a 95 3e
       -0.34590372 0.298595 0.291341 0.29170373
0003d0 34 10 9c 3d 35 0a bd 3d 25 e5 90 3e 50 11 4d bd
       0.07620278 0.092304625 0.28299823 -0.05006534
0003e0 28 fd 9d be a0 8f 92 be ea aa e7 3d 7c 74 32 3e
       -0.30857205 -0.28625202 0.11311896 0.17427248
0003f0 0f d6 1f 3e 89 f4 7e 3d 02 2f 91 3e 6a 4a e6 bb
       0.15609 0.062244926 0.28356177 -0.007027914

fc1.bias f4 [64]
000000 15 3d a8 bd ac c7 76 be 13 cf b1 be dd 5f 4b 3e
       -0.082147755 -0.24099606 -0.34728298 0.19860788
000010 05 f6 a6 3e 9a 6c c1 3d f1 88 75 bd 8e 7d 9b be
       0.32609573 0.09444542 -0.05994505 -0.30369228
000020 ed 61 82 3d 64 12 86 be a5 c4 e5 be 32 cb 84 3e
       0.06366334 -0.26185906 -0.4487659 0.25936276
000030 c0 4a 21 3e 90 57 9c be 94 3b f1 be 50 6a 3d 3c
       0.15751171 -0.30535555 -0.47115767 0.011560991
000040 43 7c 9f bd 29 b1 89 be 7c c9 08 be ea 99 3b be
       -0.07787373 -0.26892975 -0.1335811 -0.18320432
000050 2d 81 57 be aa 33 26 3e 19 17 45 bd 47 b1 03 3e
       -0.2104537 0.16230646 -0.04811773 0.12860595
000060 7f e0 05 be 3f e0 42 be ad a3 ce 3d 41 61 99 bd
       -0.1307392 -0.19030856 0.100898124 -0.07489253
000070 8e 68 00 bf 9b 06 35 be 1b 98 7c 3d 85 7c 4d bd
       -0.5015954 -0.17678301 0.061668497 -0.05016758
000080 e8 d2 bc bc 7c 3b a2 be 85 0c 8a 3e fc 9c 86 3e
       -0.023049787 -0.31686008 0.26962677 0.26291645
000090 52 4a ca be d9 fb 66 3e b1 39 c5 3d 53 d5 15 3e
       -0.39509827 0.2255701 0.096301444 0.14632158
0000a0 c6 cf a7 be 66 c9 1c be f6 db 89 3e c3 66 57 be
       -0.32775706 -0.15311202 0.2692563 -0.21035294
0000b0 8e 90 3e be b9 b6 b1 bd 7a 51 2a 3e 72 a6 f8 bd
       -0.1860983 -0.0867743 0.16632643 -0.12141122
0000c0 1f a0 79 3d 7e c2 57 be c9 f9 fc 3c 75 2d 73 bd
       0.06094372 -0.21070287 0.030880826 -0.059369523
0000d0 61 af 04 bf 30 da 80 be 1c a0 22 be 8b 22 a6 be
       -0.51830107 -0.25166464 -0.1588139 -0.3244823
0000e0 86 61 95 be ec ae a6 3c 58 76 35 3e 5a da b6 3d
       -0.29175967 0.020347081 0.17720926 0.08928366
0000f0 be 47 a0 be 22 b2 4e be f0 5b 5e 3e de 6d 77 bc
       -0.31304735 -0.2018514 0.21714759 -0.015101878

fc2.weight f4 [32, 64]
000000 49 46 13 3e 12 ed 63 3c 95 cf 42 3e 2f ff 28 bd
       0.1438228 0.013911502 0.19024499 -0.041258987
000010 d3 08 74 3d 0a 14 ae 3d 1d aa 1b 3e e8 8b 07 3e
       0.059578728 0.08499916 0.15201612 0.13236964
000020 f9 1a 0a 3e ae bb 51 be 51 b9 64 be 32 2e 4a be
       0.13486852 -0.2048175 -0.22336318 -0.19744185
000030 ce e6 3b 3d 46 3f 0a 3d 9f e6 15 3e 65 15 47 be
       0.04587441 0.03375175 0.14638756 -0.19441755
000040 d3 7f 49 3e 61 22 13 3e 09 10 d4 bd 80 07 2a 3d
       0.19677667 0.14368583 -0.10354621 0.04151106
000050 64 99 e2 bd 06 7b 5d be 15 c3 1c 3e 3e 7d c9 bd
       -0.11064413 -0.21628961 0.15308793 -0.09838341
000060 7a 71 c0 3d da 97 0a 3e b0 ae 9f bc 45 d7 6f bd
       0.09396644 0.1353449 -0.019492477 -0.058554906
000070 ca 0e 14 3e fc 64 8a bb ee dc 2e 3e 30 30 c1 bc
       0.14458767 -0.004223464 0.17076465 -0.023582548
000080 ed 88 75 3e 41 77 98 3d 55 ff 34 bd 8b ed 12 3d
       0.23978014 0.07444621 -0.044188816 0.03587107
000090 88 42 68 bb 00 1f a3 bd cd 26 51 3c 00 be 32 bd
       -0.0035440046 -0.07964897 0.0127655985 -0.04363823
0000a0 14 d7 3d 3e b7 91 1f bd 3f 62 b4 3b c8 39 93 3d
       0.18539077 -0.038957324 0.005504876 0.07188755
0000b0 d5 87 84 3e 72 01 30 3e c2 b4 c2 3d 7e 17 7f be
       0.25884882 0.17188051 0.09507133 -0.24911305
0000c0 8f 85 40 be 85 12 d2 3d d1 a0 f4 bd 65 45 82 be
       -0.18800949 0.102574386 -0.11944736 -0.2544357
0000d0 39 8a fe 3d be e7 8f 3d 87 a2 12 bb 00 42 00 be
       0.12428708 0.07026623 -0.0022374706 -0.12525177
0000e0 5b 3c 12 be fc 42 09 bd 9a ff df 3d a3 59 2a 3e
       -0.14280836 -0.033511147 0.10937424 0.16635756
0000f0 a7 f8 9b 3e b4 91 91 be 23 92 fc 3d 9e 17 28 3e
       0.30463144 -0.28431475 0.12332561 0.16415259
000100 c8 3e f2 3d 29 7c cf 3c e2 65 7a 3e 37 37 19 3d
       0.11828381 0.025327759 0.24452928 0.037406173
000110 82 5f de 3c f5 d7 29 be 42 b6 d3 bc d4 59 66 3e
       0.027145151 -0.16586287 -0.025843743 0.22495204
000120 ce 79 ad 3d 3a af 1b be 87 e0 32 3e ad bc 01 3e
       0.08470498 -0.15203562 0.17468463 0.1266963
000130 89 2d 37 3b 01 2f e0 bb 2a 20 d4 bd 03 50 35 be
       0.0027950725 -0.006841541 -0.10357697 -0.17706303
000140 e6 32 45 be fc 4f 0d bf 21 a4 83 bd 7c e5 88 3d
       -0.19257697 -0.5520017 -0.064277895 0.06684396
000150 79 d6 42 bc 62 b0 23 3d 53 32 22 be 3e e3 55 3d
       -0.011891955 0.039963134 -0.1583951 0.05221867
000160 e2 aa 7e bd e1 79 81 bd 73 f3 18 be ab 11 15 3c
       -0.062174685 -0.06322075 -0.14936619 0.009098451
000170 8b de 69 3e d3 ae 75 3e d7 c2 b5 3d 41 22 52 3d
       0.228388 0.23992471 0.088750534 0.0513022
000180 63 79 21 be f0 82 a8 be 4d 34 ab bc eb 57 de 3d
       -0.15768962 -0.32912397 -0.020898962 0.10856613
000190 bb b8 61 3e dd 98 af bd 74 5e ae bd 60 88 82 be
       0.22043125 -0.08574078 -0.08514109 -0.2549467
0001a0 5f 62 da 3d 08 c0 aa bd c4 a6 7d bd 6c 9b 44 3e
       0.10663294 -0.08337408 -0.06192662 0.19199914
0001b0 bf e3 07 be 39 c5 29 be 90 d2 f2 bc 46 83 fb 3d
       -0.13270472 -0.1657914 -0.02964142 0.12280898
0001c0 1a ca 81 bd c7 63 75 3e f0 c7 04 3e 80 d0 18 be
       -0.06337376 0.23963843 0.12966895 -0.14923286
0001d0 c4 90 90 bd 00 6b 1a bd 5c f2 db bd 02 a0 0b be
       -0.07058862 -0.0376997 -0.10739586 -0.13635257
0001e0 6f 7f 92 3d 34 cb 2f 3d 83 c0 aa be 3d 6c 26 be
       0.07153212 0.0429184 -0.3335 -0.16252227
0001f0 d3 18 11 bd de 53 34 3e 44 ff 73 3e 75 49 d9 3d
       -0.035424065 0.17610118 0.23827845 0.10609714
000200 e4 13 06 3e 05 f5 e3 3c f5 78 1a 3d 07 21 8c be
       0.13093525 0.027826795 0.03771301 -0.27368948
000210 3f aa 16 3e 38 9b 68 3c d6 69 ed 3a 39 1c 9f be
       0.14713381 0.014197163 0.0018113207 -0.3107622
000220 89 c6 0f 3e 13 24 fb 3d 0a 9a d1 3d 8c 01 54 3d
       0.14040579 0.1226274 0.10234459 0.051759288
000230 0d 88 c3 3c e5 b8 a4 be 80 25 64 3d f7 e4 70 be
       0.023868585 -0.32172313 0.055699825 -0.23524843
000240 6f 86 12 bd a2 0b e4 bc 22 b7 87 bb 25 49 3a be
       -0.035772737 -0.027837578 -0.004141704 -0.18191965
000250 62 6e cd 3a 0a 1e c3 bd c8 a5 6e 3e b1 66 be bb
       0.0015673155 -0.09527214 0.23305428 -0.0058105816
000260 6f db ee bc ae ef d1 3d 7e c5 87 be 57 14 f2 3c
       -0.029157368 0.102507934 -0.26517862 0.029550714
000270 7c b8 7a 3d f3 11 4f be 5d 40 51 be 17 9e 64 3e
       0.061211094 -0.20221691 -0.20434709 0.22325931
000280 5c 67 41 3d de 5e 3d be b4 44 d5 3d bd 81 75 3e
       0.04721771 -0.1849322 0.10413495 0.23975272
000290 8f ec 59 3d f9 52 d6 3b 3e 15 12 3e 64 6b d9 3d
       0.053204115 0.006540653 0.14265916 0.10616186
0002a0 1c 42 27 be 13 13 cd 3c dd 12 40 3e 10 a3 a6 be
       -0.16333812 0.02503351 0.18757196 -0.32546282
0002b0 21 3a 87 be ff 6d f0 3d 2f bc df bd 98 bd 17 3e
       -0.26411536 0.1173973 -0.10924565 0.14818418
0002c0 31 4f 87 3d 6b 34 33 3e 10 45 d2 3d d1 2c f6 3d
       0.066069014 0.17500465 0.10267079 0.12020267
0002d0 f2 1c 41 be 05 62 a0 bd cf fe 3c be c7 52 48 3e
       -0.18858698 -0.07831196 -0.18456577 0.19562827
0002e0 c2 53 85 3d 09 ba 70 be 26 a1 2e 3e 59 4c ff bb
       0.06510116 -0.23508467 0.17053661 -0.007791084
0002f0 1e 57 89 bc 27 ce 13 bb b8 8b 94 bd 1f d4 9e 3d
       -0.016765174 -0.0022553296 -0.07253212 0.07755303
000300 8e 1d 06 3e f2 76 87 bc e9 ca f1 bd aa 1d 9d bc
       0.13097212 -0.01653621 -0.1180628 -0.019179184
000310 48 79 cb 3d a4 58 0d bc b3 67 35 3e 23 d9 3f 3e
       0.09935242 -0.008627091 0.1771534 0.18735175
000320 93 00 88 bd ce c0 37 3e 2b f2 b7 3d dd 51 86 3d
       -0.066407345 0.17944643 0.08981737 0.06558583
000330 e4 3c 22 bd 5c 0a f0 3c 3b b9 aa bc 6f 8f df bd
       -0.03960885 0.029301815 -0.020840278 -0.1091603
000340 60 dc 5d bd ed 9b 19 3e 0f 94 45 be ab 1e c9 3d
       -0.054165244 0.15000887 -0.19294761 0.098203026
000350 f8 c3 84 3c fb 5d 8a be 74 e3 4c 3e 77 e0 94 3d
       0.016206726 -0.27024826 0.20008641 0.07269376
000360 ed 69 7b 3e f5 2f da bd 55 15 16 be ce de bb bc
       0.24552126 -0.10653678 -0.14656575 -0.02293339
000370 43 0a 17 be 11 0d 21 3b 0b d9 1a 3e d1 9a 03 3e
       -0.14750008 0.0024574439 0.15121858 0.12852027
000380 dd 03 04 3c 82 bd e2 bd 9e 82 c1 3d 2f 5c c7 bb
       0.008057562 -0.11071302 0.094487414 -0.006083987
000390 cf 93 56 3d 50 0b 96 bd de d9 f9 3d 34 3e 09 be
       0.052387055 -0.073263764 0.12199758 -0.13402635
0003a0 07 cc b8 bd 71 c0 2c 3c ac 57 5f 3e 19 ec 59 bc
       -0.0902329 0.0105439285 0.21810788 -0.013300919
0003b0 d0 b5 82 3d 7c c5 3b bd 89 69 3a 3d 47 cb 25 3d
       0.06382334 -0.045842633 0.045510802 0.040477064
0003c0 e1 e9 0b 3d fc db 88 bd 4b 1f ad bd a4 d9 24 be
       0.03415859 -0.06682584 -0.08453234 -0.16098648
0003d0 b9 dc 13 bd 09 eb 28 be 22 3c 05 be d0 7f 1e 3e
       -0.03609917 -0.16495909 -0.1301122 0.15478444
0003e0 c5 03 83 3e a1 27 48 bd f6 0f 19 be 63 9d 31 3e
       0.25588813 -0.048865918 -0.14947495 0.17345195
0003f0 19 ba 10 bd a8 70 1e 3e 9e 36 b6 3b ad dd 71 3d
       -0.035333727 0.15472662 0.00556071 0.059049297

fc2.bias f4 [32]
000000 0a 28 41 be 40 3f 00 3d d7 fd bc 3e da 7a 45 3d
       -0.1886293 0.03131032 0.36912414 0.048212864
000010 d9 fb bb bd b2 c4 2b bb 0f de db 3d 54 af d4 bd
       -0.091788955 -0.002620977 0.10735714 -0.10385004
000020 58 4d 29 3e d4 62 12 3e 33 68 12 3e 52 30 e3 bd
       0.1653341 0.14295512 0.14297561 -0.11093201
000030 64 8b 81 3d 36 ce 66 3e ba 76 57 be cb 4a 2d 3e
       0.06325415 0.225396 -0.21041384 0.16923063
000040 1f 65 82 3c 36 b2 a6 3d 1d fd 05 3e 6e 24 f9 bd
       0.015917359 0.0813946 0.13084836 -0.121651515
000050 c7 7c 0a 3e 96 76 10 3e 28 72 1a 3e 1f 3c 27 bd
       0.13524161 0.14107737 0.1508261 -0.04082882
000060 99 f0 08 be a4 a4 ee 3d 41 c2 b5 bd 99 84 b8 bd
       -0.1337303 0.116524965 -0.088749416 -0.09009666
000070 dd ac e3 bd b6 5f c7 bd 3f c9 24 3d c5 20 25 3e
       -0.111169554 -0.09735052 0.040230986 0.16125782

fc3.weight f4 [5, 32]
000000 54 f2 f9 3e 12 5d 1f be 15 2f 4c bf 28 60 fe bd
       0.48817694 -0.15562847 -0.7975934 -0.12420684
000010 f1 39 75 3d 50 4f f7 be 99 c6 e9 be 74 03 ba bd
       0.05986971 -0.48302698 -0.4565933 -0.0908269
000020 0a 06 52 bc ae 81 aa bd d1 b1 6a be f3 3e 1e 3d
       -0.012818823 -0.08325516 -0.22919394 0.03863425
000030 54 05 0b 3e 8b f0 3a bf dd 86 d3 3d 97 d6 1d 3f
       0.13576251 -0.7302329 0.103284575 0.61655563
000040 4a 56 6e bd 7d c9 cb be 68 ba f7 bd d6 f4 a8 3d
       -0.05818776 -0.3980216 -0.12096101 0.08249824
000050 90 d3 6e 3f 77 e7 93 3e c1 88 bf be 76 b1 39 bd
       0.9329157 0.2888753 -0.37409022 -0.045335256
000060 b8 f6 2a 3d bb e1 a4 be 17 8f 78 3f da cb b3 3e
       0.041739196 -0.3220347 0.9709334 0.35116464
000070 73 a8 37 be e3 7b 8a 3e 4b 27 1e 3f c7 b2 d2 3d
       -0.17935352 0.27047643 0.61778706 0.10288005
000080 ab 17 80 3d 98 25 d8 bd ab 17 21 3e c5 c1 52 be
       0.06254514 -0.105540454 0.15731685 -0.2058173
000090 88 ed fe bc c3 aa 3f 3e 62 c8 6b 3e 3b 65 92 be
       -0.031119123 0.18717484 0.23025659 -0.28592858
0000a0 1e c1 eb 3e 3b 0d 94 bd 07 8e 77 bf fd 9f f2 be
       0.46045774 -0.07229086 -0.9670109 -0.47387686
0000b0 84 9e 8e 3e b7 d3 64 3e d0 b1 35 bf df 24 e4 3e
       0.27855313 0.22346388 -0.70974445 0.4455938
0000c0 19 b6 4e 3d 2b 84 40 3e e2 0d 08 bf 80 c1 b5 be
       0.05046663 0.18800418 -0.53146183 -0.3549919
0000d0 b1 e1 00 be 5c fb f9 3e d1 b1 f7 bd cd f6 05 bd
       -0.12586094 0.48824584 -0.12094463 -0.03270607
0000e0 90 d0 bf 3e 8b dd 6f 3e 89 1b b7 be 38 35 70 be
       0.37463808 0.23424356 -0.35763195 -0.23457801
0000f0 43 7e 10 3e bf b3 ce be 3a f6 d5 be 12 9f 00 3f
       0.14110665 -0.4037151 -0.41789418 0.5024272
000100 91 7d cf 3e 9c c7 4b bf 06 07 17 be 86 26 15 3f
       0.40525487 -0.79601455 -0.14748773 0.5826191
000110 5c 8f 87 3e 88 ba 48 3e 12 17 4b be bf 74 47 bd
       0.26476562 0.19602406 -0.1983302 -0.048695322
000120 84 0b 05 3f 9c ca 8e be cf 25 b9 3e 4d b1 0f 3f
       0.51970696 -0.27888954 0.36161658 0.56129915
000130 a1 40 f7 bd a5 52 83 3e 42 a1 76 3e 52 b7 d8 be
       -0.12072874 0.2564899 0.24084952 -0.42327362
000140 bd df 06 3c 60 21 c3 bd c7 5b bb be 30 de b5 3d
       0.008232054 -0.0952785 -0.36593458 0.088802695
000150 4a f6 89 be e7 e2 18 bf ea 2a a0 be 86 ed bf be
       -0.26945716 -0.59721226 -0.3128274 -0.37485904
000160 36 f4 e6 be fd d6 eb 3d 5b a0 2f 3e 98 c4 9c be
       -0.45108193 0.11515615 0.17151015 -0.3061874
000170 49 08 1c 3f ba f5 8a bd 6e 21 be be 74 e0 18 bf
       0.6095014 -0.0678515 -0.3713488 -0.5971749
000180 cb ad 3e bf db 8e 1a 3f e9 32 03 3f 6d f4 93 3e
       -0.7448394 0.6037423 0.5124956 0.2889742
000190 fc 0d ab be f3 bc e6 3e e7 28 da be 0f 48 ac 3e
       -0.33409107 0.45066032 -0.4260933 0.33648726
0001a0 f5 23 73 be 7f 65 9b be 9d 92 86 be 5e 41 56 3e
       -0.23744185 -0.30350873 -0.26283732 0.20923373
0001b0 20 cd d5 bd 8b 33 a0 be 9d 47 04 3f d0 86 2d 3e
       -0.10439515 -0.31289324 0.51671773 0.16945958
0001c0 7b b9 14 3e b9 51 6f 3e 19 ec d5 3e df 7e 21 bd
       0.1452388 0.23371018 0.4178169 -0.039427634
0001d0 9c bc 15 bf 01 ee 55 3e 83 db 82 3e fc 7b 31 3f
       -0.5849092 0.20891573 0.255581 0.6932981
0001e0 40 f0 bd be 2d 7e 14 3d aa 68 ff be 74 2d 6f bf
       -0.3709736 0.036253143 -0.4988454 -0.9342873
0001f0 c7 29 02 bf 7d c7 7a 3e 64 b6 10 3e ba 60 87 3e
       -0.50845 0.24490161 0.14132077 0.26440984
000200 87 6a a3 bd bb 52 e4 3e 7c 7d fc 3e 75 47 9b be
       -0.07979303 0.44594368 0.49314487 -0.30327955
000210 b1 60 8f 3d fd 9a 20 bf 13 58 52 3f c5 01 43 3d
       0.07000864 -0.62736493 0.8216564 0.04760911
000220 84 86 36 bf 61 8c fa 3e 79 0e 41 3f f9 a4 a1 be
       -0.71299005 0.48935226 0.7541271 -0.31571177
000230 32 89 32 bf 99 50 63 3e 16 ba b5 be 3c 28 9d be
       -0.69740593 0.22198714 -0.35493535 -0.3069476
000240 fe 0a 46 bd 6c 4e c2 3e fd 0d 87 3e e5 d0 8e 3e
       -0.048350327 0.37950456 0.2637786 0.2789375
000250 c2 17 05 3e 17 15 cb bd 42 36 2d 3f b6 33 83 be
       0.12997344 -0.09916132 0.67660916 -0.2562539
000260 f6 13 0d 3e 69 d0 fd 3d 2b 57 b8 be 5e 92 7d 3f
       0.13777146 0.12393267 -0.36004004 0.99051464
000270 3b 7e 7a be f9 42 26 be b0 55 6d 3e 77 00 a1 be
       -0.24462216 -0.16236486 0.23177218 -0.31445667

fc3.bias f4 [5]
000000 1e 2d 17 be 5a 3d 65 3e 05 15 ba be 05 60 b6 3c
       -0.14763305 0.22386685 -0.36344162 0.022262583
000010 6a ad ea 3d
       0.11458857
